…
seed_data_split          -->   [0]
task                     -->   HierSurv
tra_backbone             -->   Transformer
tra_dw_conv              -->   False
tra_epsilon              -->   0.8
tra_ksize                -->   3
tra_nhead                -->   8
tra_num_layers           -->   1
tra_position_emb         -->   True
weight_decay             -->   0.0005
**************** MODEL CONFIGURATION ****************


./results-luad-hier/reproducing_luad-seed_data_split_0
[setup] seed: 42
WSIHierNet(
  (patchx20_embedding_layer): CAPoolPatchEmbedding(
    (conv_patch_x5): Conv1dPatchEmbedding(
      (conv): Conv1d(512, 256, kernel_size=(1,), stride=(1,))
    )
    (conv): Conv2d(512, 256, kernel_size=(3, 3), stride=(1, 1), padding=(1, 1))
    (norm): LayerNorm((256,), eps=1e-05, elementwise_affine=True)
    (act): ReLU(inplace=True)
    (cross_att_pool): MultiheadAttention(
      (out_proj): NonDynamicallyQuantizableLinear(in_features=256, out_features=256, bias=True)
    )
  )
  (patchx5_embedding_layer): Conv1dPatchEmbedding(
    (conv): Conv1d(512, 256, kernel_size=(5,), stride=(1,), padding=(2,))
    (norm): LayerNorm((256,), eps=1e-05, elementwise_affine=True)
  )
  (patch_encoder_layer): TransformerEncoder(
    (layers): ModuleList(
      (0): TransformerEncoderLayer(
        (self_attn): MultiheadAttention(
          (out_proj): NonDynamicallyQuantizableLinear(in_features=256, out_features=256, bias=True)
        )
        (linear1): Linear(in_features=256, out_features=256, bias=True)
        (dropout): Dropout(p=0.6, inplace=False)
        (linear2): Linear(in_features=256, out_features=256, bias=True)
        (norm1): LayerNorm((256,), eps=1e-05, elementwise_affine=True)
        (norm2): LayerNorm((256,), eps=1e-05, elementwise_affine=True)
        (dropout1): Dropout(p=0.6, inplace=False)
        (dropout2): Dropout(p=0.6, inplace=False)
      )
    )
  )
  (patch_encoder_layer_parallel): TransformerEncoder(
    (layers): ModuleList(
      (0): TransformerEncoderLayer(
        (self_attn): MultiheadAttention(
          (out_proj): NonDynamicallyQuantizableLinear(in_features=256, out_features=256, bias=True)
        )
        (linear1): Linear(in_features=256, out_features=256, bias=True)
        (dropout): Dropout(p=0.6, inplace=False)
        (linear2): Linear(in_features=256, out_features=256, bias=True)
        (norm1): LayerNorm((256,), eps=1e-05, elementwise_affine=True)
        (norm2): LayerNorm((256,), eps=1e-05, elementwise_affine=True)
        (dropout1): Dropout(p=0.6, inplace=False)
        (dropout2): Dropout(p=0.6, inplace=False)
      )
    )
  )
  (pool): GAPool(
    (fc1): Sequential(
      (0): Linear(in_features=256, out_features=256, bias=True)
      (1): Tanh()
      (2): Dropout(p=0.25, inplace=False)
    )
    (score): Sequential(
      (0): Linear(in_features=256, out_features=256, bias=True)
      (1): Sigmoid()
      (2): Dropout(p=0.25, inplace=False)
    )
    (fc2): Linear(in_features=256, out_features=1, bias=True)
  )
  (out_layer): Sequential(
    (0): Linear(in_features=256, out_features=128, bias=True)
    (1): ReLU(inplace=True)
    (2): Dropout(p=0.6, inplace=False)
    (3): Linear(in_features=128, out_features=1, bias=True)
  )
)
Total number of parameters: 3187458
Total number of trainable parameters: 3187458
[model] Transformer Position Embedding: Yes
[setup] loss: a popular PLE loss in coxph
[setup] L1 loss with coef=1e-05
[setup] optimizer: namespace(lr=8e-05, momentum=None, opt='adam', opt_betas=None, opt_eps=None, weight_decay=0.0005)
[exec] start experiment sim on HierSurv.
…
